model_ann_cabai.tflite (tflite, 53316 bytes, 8 tensors)

arith.constant f4 [6, 32]
-0.5070373 -0.5472795 0.053516585 -0.25021666 0.2542927 0.017526595 -0.47967908 0.36291236
0.14573015 -0.06272844 0.3677145 -0.11815398 0.44001576 -0.30132008 -0.5243353 0.41444352
0.03587021 -0.49034715 0.41833204 -0.04399559 -0.14447044 -0.3388423 -0.34354958 -0.04461457
0.07989977 -0.052529525 -0.5255463 0.0221725 0.40329725 0.3001316 -0.17847389 -0.3110079
-0.082745366 -0.38739935 -0.0019293897 0.07158098 0.059355713 -0.34805688 -0.15111186 -0.22865108
-0.3137317 -0.27808332 0.18132888 0.4474859 -0.17112954 0.22339909 -0.3203415 0.24614482
-0.20595121 0.0041756104 -0.26209262 0.30860192 -0.37789473 0.3906356 -0.31777084 -0.2693875
0.3461307 0.20030783 -0.20444994 -0.037058163 0.025179254 0.032209024 -0.46081725 0.36138654
0.29517207 0.027282408 -0.22102554 -0.090526484 -0.081663385 -0.6988664 -0.15027472 0.011137622
-0.44742212 0.25225386 0.3909574 -0.4259653 -0.31864324 -0.30575785 -0.19652915 -0.5893945
0.14154032 0.24756666 -0.116827205 0.25497335 -0.10004331 -0.17788044 0.28378195 0.37607652
0.26273385 -0.21935132 -0.22057462 -0.3236678 0.41562694 -0.2899605 -0.2853233 0.34936067
-0.012813269 -0.5085725 0.14642029 -0.3565602 0.3783272 0.05067517 0.20343071 -0.08524749
0.28356668 -0.091628015 -0.5103363 -0.5179356 0.33555844 -0.35779664 -0.42348713 0.35912648
-0.24481799 -0.2524038 0.2703959 -0.3766646 -0.22248006 0.2537914 0.2024963 -0.5031411
-0.33562526 0.3381508 0.36584342 0.42458197 -0.43732905 -0.26709566 -0.01676453 -0.7474145
-0.33075386 0.1450133 0.076780476 -0.014751259 -0.4211479 0.41220635 0.12515259 0.32631093
-0.17097208 0.32159257 -0.42632583 -0.44685438 -0.30706766 0.1574682 0.043327425 0.29270655
-0.27678993 -0.2863304 -0.2425267 -0.061054036 0.18068174 -0.31436437 0.03381924 0.21559525
-0.28603494 0.1038942 0.41552496 -0.2967939 -0.38748807 0.08477148 -0.44578058 -0.42987704
-0.22600786 -0.24559282 -0.29560778 0.4296657 0.29429165 -0.3014167 0.22718069 -0.4261516
-0.34064496 0.41196612 0.3055571 -0.29818198 -0.42158085 0.26605204 0.081636585 -0.14312483
0.31788638 0.45598742 0.23786965 -0.48692104 0.3168298 0.0024176347 0.1293799 0.32750568
0.37651137 -0.5230055 0.030594109 -0.18847856 -0.5365395 -0.39793018 0.19731128 -0.337663
00000000: 32cd 01bf 821a 0cbf 3534 5b3d 661c 80be
00000010: a732 823e ef93 8f3c 7f98 f5be a6cf b93e
00000020: 493a 153e c577 80bd 1345 bc3e b7fa f1bd
00000030: bf49 e13e a046 9abe d73a 06bf f131 d43e
00000040: a4ec 123d c80e fbbe 9e2f d63e b834 34bd
00000050: 0ff0 13be bd7c adbe bbe5 afbe c4bd 36bd
00000060: 7ea2 a33d 3329 57bd 348a 06bf 1aa3 b53c
00000070: fa7c ce3e d9aa 993e dcc1 36be 6d3c 9fbe
00000080: 6776 a9bd 3559 c6be 93e3 fcba 0d99 923d
00000090: fa1e 733d 8334 b2be 11bd 1abe 8223 6abe
000000a0: 71a1 a0be f060 8ebe 47ae 393e df1c e53e
000000b0: 953c 2fbe bbc2 643e cd03 a4be 630d 7c3e
000000c0: e0e4 52be 8fd3 883b 0131 86be 1201 9e3e
000000d0: 6b7b c1be 6401 c83e dcb2 a2be 29ed 89be
000000e0: 0b38 b13e 7f1d 4d3e 535b 51be 4dca 17bd
000000f0: b944 ce3c 9ced 033d 3df0 ebbe a807 b93e
00000100: cb20 973e 5b7f df3c 8554 62be f365 b9bd
00000110: 223f a7bd e9e8 32bf 9ee1 19be 937a 363c
00000120: 8314 e5be 6b27 813e 912b c83e 2018 dabe
00000130: 3525 a3be 4b8c 9cbe f03e 49be 8fe2 16bf
00000140: f2ef 103e 1d82 7d3e 1a43 efbd de8b 823e
00000150: 82e3 ccbd 4a26 36be de4b 913e 1a8d c03e
00000160: 0d85 863e a29d 60be 50de 61be c9b7 a5be
00000170: 0ecd d43e b475 94be e515 92be 67df b23e
00000180: bfee 51bc cf31 02bf 33ef 153e 0f8f b6be
00000190: 1ab4 c13e c490 4f3d 2450 503e 3c96 aebd
000001a0: a72f 913e 78a7 bbbd 66a5 02bf 6d97 04bf
000001b0: 51ce ab3e 1f31 b7be 4ed3 d8be 6ddf b73e
000001c0: 91b1 7abe 123b 81be 5571 8a3e 2fda c0be
000001d0: d0d1 63be f2f0 813e 315b 4f3e dbcd 00bf
000001e0: 13d7 abbe 1a22 ad3e d44f bb3e cf62 d93e
000001f0: 98e9 dfbe c3c0 88be c555 89bc 8f56 3fbf
00000200: 9258 a9be 5e7e 143e 153f 9d3d 44af 71bc
00000210: b3a0 d7be b60c d33e 0028 003e 3a12 a73e
00000220: 4e13 2fbe c8a7 a43e 6147 dabe 19ca e4be
00000230: f937 9dbe 583f 213e 1978 313d a2dd 953e
00000240: 69b7 8dbe e699 92be eb58 78be cc13 7abd
00000250: a204 393e 5ef4 a0be 0b86 0a3d 00c5 5c3e
00000260: 2c73 92be 7bc6 d43d b0bf d43e 5ff5 97be
00000270: d664 c6be ab9c ad3d 5a3d e4be d818 dcbe
00000280: 9b6e 67be af7c 7bbe e759 97be 25fd db3e
00000290: 65ad 963e 4a53 9abe 0ea2 683e 8b30 dabe
000002a0: 0469 aebe 39ed d23e fb71 9c3e 4fab 98be
000002b0: 72d9 d7be f937 883e 1531 a73d 518f 12be
000002c0: 01c2 a23e 2f77 e93e 1a94 733e b74d f9be
000002d0: 8437 a23e 2e71 1e3b 2a7c 043e d3ae a73e
000002e0: 19c6 c03e b0e3 05bf 7fa0 fa3c 8600 41be
000002f0: a75a 09bf 81bd cbbe f80b 4a3e 2ae2 acbe

arith.constant1 f4 [32, 64]
-0.04660095 0.021246545 -0.032268565 -0.08379098 -0.048802286 0.13181788 0.08579384 -0.16717723
-0.092092454 0.16216116 -0.016565021 0.18798037 0.008291207 0.09811184 0.1523574 -0.013193462
-0.15646817 -0.044807266 -0.10585328 0.054178443 -0.040899932 0.09526919 0.05566073 0.2582492
-0.0890029 0.25245726 0.12997615 0.076383874 -0.039521344 0.04436722 0.044086922 -0.0053642495
-0.0844379 0.018262586 0.0507234 -0.11711715 0.085871376 0.16882402 -0.11764578 0.09043546
-0.042197827 0.071934745 -0.0465442 -0.2652462 0.17079185 0.19220859 0.11996831 0.09903956
-0.024044283 0.045828793 0.26408207 -0.18913573 0.08619489 -0.15261859 -0.1862564 0.18684958
0.17579189 -0.1434006 -0.0883257 -0.08429625 -0.029520214 -0.14759487 -0.041735772 -0.19172108
0.20632826 0.0068626977 0.06825316 0.0067173736 0.22357734 0.17714274 -0.15722431 -0.16920497
-0.12296092 0.06581029 0.020399556 0.08323625 0.102754384 0.11400018 -0.052665856 -0.16793238
-0.089452244 -0.18560979 0.11544557 0.03966106 0.07136406 0.120444804 -0.16179028 0.022748396
-0.14212513 0.22895165 0.018967222 0.18795308 -0.091036744 -0.074887745 -0.10923464 -0.004467221
-0.24313262 0.09786993 -0.14915383 0.04646575 0.1761794 0.2539091 -0.18675016 0.17509718
0.0073834127 -0.14770539 0.21299648 -0.011110957 0.16811092 0.057152748 0.26324221 -0.1877296
0.13646889 -0.1174042 0.036707394 -0.14155129 -0.014569562 0.070462435 0.18095487 0.12828614
0.14879833 0.027371017 -0.09940367 0.14996913 -0.14562458 -0.15791893 0.05271032 -0.23242453
-0.06489567 -0.081592135 0.00944906 0.03551329 -0.009963184 -0.04919823 0.09060496 -0.050360635
-0.0081174765 -0.010712898 0.0083321445 0.0010333962 0.016868643 -0.030584456 -0.028857796 -0.054878376
8.8006316e-05 -0.041603412 -0.039266527 0.0008924239 0.06975904 0.07408975 0.07406918 -0.024576409
-0.04351442 -0.051190924 -0.059091706 -0.05398795 0.027295066 0.07654997 0.008476387 -0.042590752
0.093619086 0.037796266 0.026534824 0.055955783 -0.012802435 -0.05004003 -0.0010993703 0.08718466
0.073807806 0.036105808 0.08127156 -0.04615152 0.08560108 -0.0765013 -0.004931981 -0.0068176426
-0.1350973 0.024776785 -0.111741826 -0.0261799 0.018312955 0.07504803 -0.036191605 -0.11505206
0.017543124 0.00356927 -0.0017591468 0.094656356 0.025217753 -0.016194899 0.0067642936 0.029396616
-0.0021504331 -0.042426437 0.25451535 -0.07789047 0.17910407 0.15079182 -0.15727937 -0.12759684
0.23690069 0.003102086 0.11843135 -0.095451 -0.13687214 0.0078073787 0.021401953 -0.0049512647
0.036383603 -0.21378005 0.24884874 0.030379785 0.008628323 -0.21166636 0.0063753 0.11541285
0.098750815 0.011495519 0.010576249 0.1702148 -0.15515128 0.020498622 0.0137758665 -0.009731775
-0.11845007 0.06334578 0.059816986 0.043906167 0.0879976 0.09156675 -0.04532284 0.15969633
-0.13658166 0.17071895 -0.071008496 -0.009732589 -0.089595445 0.10987185 -0.12459561 -0.15733464
-0.08645425 -0.09530178 -0.022470899 -0.26566193 0.051762514 0.13839501 -0.024861827 -0.2573238
-0.11756535 0.067469835 0.055271976 0.12971446 -0.20802581 0.011815565 0.20999865 -0.07547935
00000000: a3e0 3ebd 3c0d ae3c 0b2c 04bd 9b9a abbd
00000010: e8e4 47bd 44fb 063e aeb4 af3d 8230 2bbe
00000020: f89a bcbd 930d 263e 5eb3 87bc ed7d 403e
00000030: d8d7 073c dcee c83d 9403 1c3e 6429 58bc
00000040: 3139 20be d387 37bd 9bc9 d8bd 37ea 5d3d
00000050: b086 27bd 7e1c c33d 81fc 633d 3d39 843e
00000060: 2747 b6bd 1442 813e 7818 053e 266f 9c3d
00000070: 22e1 21bd 67ba 353d 7d94 343d 96c6 afbb
00000080: c7ed acbd 6b9b 953c 57c3 4f3d 1edb efbd
00000090: 55dd af3d 34e0 2c3e 45f0 f0bd 3a36 b93d
000000a0: a1d7 2cbd 8652 933d 22a5 3ebd 5ace 87be
000000b0: 0fe4 2e3e 54d2 443e f2b1 f53d 41d5 ca3d
000000c0: 84f8 c4bc f9b6 3b3d c435 873e ccac 41be
000000d0: f286 b03d 0c48 1cbe ffb9 3ebe 7f55 3f3e
000000e0: ca02 343e 9bd7 12be 1be4 b4bd 83a3 acbd
000000f0: 60d4 f1bc 1c23 17be 21f3 2abd 8852 44be
00000100: b747 533e 7be0 e03b 50c8 8b3d 6a1d dc3b
00000110: 75f1 643e e864 353e 69ff 20be 1144 2dbe
00000120: efd2 fbbd 8cc7 863d f81c a73c c477 aa3d
00000130: e470 d23d ed78 e93d 27b8 57bd 77f6 2bbe
00000140: bd32 b7bd 7e10 3ebe ba6e ec3d a373 223d
00000150: 5227 923d c4ab f63d 5aac 25be d85a ba3c
00000160: 4089 11be 4d72 6a3e 2661 9b3c c676 403e
00000170: 7971 babd bf5e 99bd 69b6 dfbd c461 92bb
00000180: c2f7 78be 0870 c83d c8bb 18be df52 3e3d
00000190: 5f68 343e 6000 823e 6f3b 3fbe ad4c 333e
000001a0: 8ef0 f13b 1540 17be c01b 5a3e bb0a 36bc
000001b0: 4525 2c3e 0019 6a3d afc7 863e 303c 40be
000001c0: 80be 0b3e 9d71 f0bd 7e5a 163d d2f2 10be
000001d0: 2cb5 6ebc 9c4e 903d 3c4c 393e 715d 033e
000001e0: 975e 183e 2f39 e03c 2794 cbbd 8291 193e
000001f0: 9c1e 15be 80b5 21be c7e6 573d b200 6ebe
00000200: 05e8 84bd c719 a7bd 3bd0 1a3c 6276 113d
00000210: 9f3c 23bc 1584 49bd 188f b93d f446 4ebd
00000220: 2aff 04bc 2785 2fbc 8c83 083c 0673 873a
00000230: 1c30 8a3c 418c fabc 2f67 ecbc 26c8 60bd
00000240: 0890 b838 5768 2abd f0d5 20bd 8ef1 693a
00000250: d4dd 8e3d 5ebc 973d 95b1 973d 7754 c9bc
00000260: 2d3c 32bd 93ad 51bd 250a 72bd 7822 5dbd
00000270: e799 df3c 3bc6 9c3d 8be0 0a3c a473 2ebd
00000280: 5dbb bf3d 42d0 1a3d 8f5f d93c e431 653d
00000290: 4ec1 51bc c6f6 4cbd bf18 90ba df8d b23d
000002a0: 8c28 973d afe3 133d b471 a63d 6009 3dbd
000002b0: 9e4f af3d b7ac 9cbd 759c a1bb 8866 dfbb
000002c0: f256 0abe aff8 ca3c e6d8 e4bd 3b77 d6bc
000002d0: 0d05 963c c8b2 993d a63d 14bd 6aa0 ebbd
000002e0: 99b6 8f3c 6aea 693b 2c93 e6ba 31db c13d
000002f0: 7695 ce3c 2aab 84bc 02a7 dd3b 2cd1 f03c
00000300: 48ee 0cbb 58c7 2dbd d64f 823e 0a85 9fbd
00000310: 0f67 373e 2c69 1a3e d80d 21be bfa8 02be
00000320: 1896 723e 5e4c 4b3b 238c f23d d07b c3bd
00000330: 3628 0cbe 0ad5 ff3b 2653 af3c 383e a2bb
00000340: f906 153d 28e9 5abe 34d2 7e3e 07df f83c
00000350: cf5d 0d3c 11bf 58be e5e7 d03b 935d ec3d
00000360: de3d ca3d b457 3c3c 0148 2d3c ca4c 2e3e
00000370: fadf 1ebe baec a73c 2cb4 613c 0672 1fbc
00000380: f395 f2bd 6fbb 813d a802 753d f4d6 333d
00000390: 1638 b43d 5987 bb3d 71a4 39bd 6f87 233e
000003a0: 10dc 0bbe f3d0 2e3e e76c 91bd 7075 1fbc
000003b0: d17d b7bd 7e04 e13d fc2b ffbd 551c 21be
000003c0: ed0e b1bd 942d c3bd e414 b8bc d704 88be
000003d0: ee04 543d 6cb7 0d3e 08ab cbbc f2bf 83be
000003e0: 1ac6 f0bd a02d 8a3d de64 623d ded3 043e
000003f0: b804 55be 1296 413c e309 573e eb94 9abd

arith.constant2 f4 [64, 128]
0.046683848 0.06458382 -0.057730127 0.018432932 0.07919096 0.023502067 -0.06480831 -0.07758075
0.10530829 -0.09707826 -0.105950825 0.16718721 0.044916205 0.18503942 -0.03960211 -0.029649641
-0.033718262 -0.10233838 0.09956516 -0.050946116 0.03743956 -0.03567459 0.024058275 0.1579716
0.042826556 -0.021559725 0.012104378 0.13094826 -0.008940433 -0.006049291 0.07035499 0.020216893
-0.06655101 0.008905053 0.11941835 0.04521409 0.05152802 0.04499786 0.09703042 0.10976739
0.046144973 0.15183868 -0.011906689 0.205004 0.16515659 0.03292965 0.023593491 -0.04894524
0.16963574 0.07721681 -0.021857025 0.00075733685 -0.0050797947 -0.033027135 -0.13688761 0.06604274
-0.13741253 -0.08051235 0.16099694 -0.16192156 -0.09586464 0.055808764 -0.059210397 0.06472809
-0.12835716 -0.034199495 0.08105897 -0.09362667 0.098942176 0.14045377 -0.14785099 -0.02133425
-0.053820994 -0.12441697 -0.02005557 -0.08157237 -0.036865547 0.07894642 0.025679113 0.23560666
0.020806493 0.062130056 0.013563908 0.06804605 -0.13154066 0.16630724 0.03230268 -0.07944485
0.04895532 0.056250226 0.041269746 -0.008569016 0.049634557 0.1863532 0.052662976 0.02189881
-0.025383078 -0.13209714 0.100265555 0.15906455 -0.023920713 0.14090906 0.026064828 0.09035104
-0.049550492 0.061647277 -0.179404 0.09283918 0.13044332 -0.003537903 0.14165893 0.22379635
-0.084267914 -0.018750384 -0.07601028 -0.06808912 -0.009041506 -0.030334638 0.09647303 0.088437885
0.010973752 -0.05468904 0.02370301 0.20843701 0.047072936 0.15122798 -0.046344787 -0.073696
-0.08311737 -0.053941775 0.13640787 -0.0449324 0.07738055 0.17265384 0.10578884 0.066964686
-0.027959041 0.08074322 0.07950125 0.01628167 -0.0021807917 -0.038780674 -0.09672013 0.07313097
0.01026284 0.09367689 0.19317028 0.043629695 0.03252655 0.040919416 0.063477114 0.008627795
0.061578717 0.105140895 0.0444463 0.11971348 0.06237833 0.021920448 0.09142208 0.023503046
0.056658305 0.03557815 0.11516471 0.10115597 0.07179383 -0.11934754 -0.10007892 -0.08327493
0.14526026 -0.043641165 -0.024533711 0.004731878 -0.028237056 -0.034899916 0.0834962 -0.0076088067
-0.04936719 0.060985908 0.027799407 0.0016040738 -0.046116874 -0.03415417 -0.07349058 -0.027249448
-0.11727545 -0.053627823 0.0986999 0.13993299 -0.14488016 0.12257924 -0.09969867 -0.16026695
0.1520203 -0.13916592 -0.023934001 0.06583653 0.04445514 -0.022043558 0.034567587 -0.024027776
-0.055885132 0.08651359 -0.016796319 -0.07549768 0.016095847 0.0033529366 -0.012075175 -0.001935875
-0.09614253 0.07609721 -0.03265713 0.1952335 -0.10559221 0.12156622 -0.00658588 0.074637376
0.056293104 0.047125917 -0.12055537 -0.0074651786 -0.00067994476 0.036760397 0.018869616 0.09648732
0.04453435 0.09215247 0.011095956 -0.07133989 0.11943055 0.051092193 -0.02234804 -0.0842062
-0.044961434 -0.037169293 0.1542702 0.11685882 -0.020455373 -0.029259915 0.13597159 0.0020838804
0.17265604 0.1391259 -0.0674753 -0.08932106 -0.045539405 -0.07273047 0.052619044 0.08110262
-0.04217677 -0.11933138 -0.08711693 -0.02332396 0.06395559 0.1633293 -0.0025012156 0.035821
00000000: 9037 3f3d 8644 843d 6d76 6cbd a900 973c
00000010: df2e a23d 6887 c03c 38ba 84bd a8e2 9ebd
00000020: dfab d73d f7d0 c6bd bffc d8bd 2033 2b3e
00000030: 0efa 373d f97a 3d3e d235 22bd cee3 f2bc
00000040: 291c 0abd c996 d1bd d2e8 cb3d e0ac 50bd
00000050: 395a 193d 851f 12bd dc15 c53c 4fc3 213e
00000060: e66a 2f3d 059e b0bc 7151 463c 4d17 063e
00000070: e57a 12bc 2239 c6bb 4716 903d e69d a53c
00000080: e54b 88bd 80e6 113c 9c91 f43d 6932 393d
00000090: 0c0f 533d ad4f 383d e3b7 c63d bacd e03d
000000a0: 8302 3d3d 997b 1b3e 4614 43bc 92ec 513e
000000b0: cf1e 293e 3ee1 063d 2347 c13c ce7a 48bd
000000c0: feb4 2d3e d923 9e3d 810d b3bc 0488 463a
000000d0: 6874 a6bb 7647 07bd 442c 0cbe 6b41 873d
000000e0: dfb5 0cbe a9e3 a4bd 62dc 243e c4ce 25be
000000f0: ae54 c4bd bb97 643d 9a86 72bd 2990 843d
00000100: 0f70 03be c514 0cbd 3f02 a63d 57bf bfbd
00000110: 32a2 ca3d 1dd3 0f3e 4066 17be 2ac5 aebc
00000120: 6773 5cbd 53ce febd 944b a4bc 6a0f a7bd
00000130: 5400 17bd a9ae a13d 015d d23c df42 713e
00000140: 6172 aa3c 167c 7e3d 273b 5e3c ba5b 8b3d
00000150: 98b2 06be 724c 2a3e d14f 043d fbb3 a2bd
00000160: 6085 483d a366 663d 770a 293d 0f65 0cbc
00000170: 9b4d 4b3d 60d3 3e3e 22b5 573d 2265 b33c
00000180: 2cf0 cfbc 7944 07be 0758 cd3d d1e1 223e
00000190: 5ff5 c3bc 774a 103e e885 d53c f709 b93d
000001a0: 75f5 4abd db81 7c3d afb5 37be 7822 be3d
000001b0: ef92 053e 2adc 67bb 0a0f 113e df2a 653e
000001c0: a894 acbd 689a 99bc 47ab 9bbd 4f72 8bbd
000001d0: d322 14bc 5980 f8bc a793 c53d ec1e b53d
000001e0: 40cb 333c 9d01 60bd d12c c23c 8370 553e
000001f0: 8dcf 403d 82db 1a3e 08d4 3dbd eeed 96bd
00000200: 7139 aabd 0df2 5cbd 81ae 0b3e 090b 38bd
00000210: b279 9e3d 2bcc 303e d2a7 d83d c824 893d
00000220: 5c0a e5bc b45c a53d 8dd1 a23d 2361 853c
00000230: 9deb 0ebb 7cd8 1ebd 3415 c6bd b1c5 953d
00000240: 7925 283c abd9 bf3d 6ece 453e 0db5 323d
00000250: 8f3a 053d 1e9b 273d 4a00 823d 985b 0d3c
00000260: f739 7c3d 1c54 d73d 530d 363d 572c f53d
00000270: 6b80 7f3d 8392 b33c 803b bb3d 7689 c03c
00000280: 8a12 683d 65ba 113d 7adb eb3d dc2a cf3d
00000290: a508 933d 7c6c f4bd 2df6 ccbd 0c8c aabd
000002a0: 1bbf 143e 14c1 32bd ecfa c8bc df0d 9b3b
000002b0: 6651 e7bc 37f3 0ebd 0e00 ab3d 4c53 f9bb
000002c0: 4035 4abd 5ccc 793d 95bb e33c c93f d23a
000002d0: 0ce5 3cbd 3ee5 0bbd 3b82 96bd 3c3a dfbc
000002e0: 1c2e f0bd d9a8 5bbd 2c23 ca3d 984a 0f3e
000002f0: 775b 14be d30a fb3d d12e ccbd 051d 24be
00000300: 36ab 1b3e 8381 0ebe 3d11 c4bc 4dd5 863d
00000310: 9816 363d b194 b4bc be96 0d3d e6d5 c4bc
00000320: cfe7 64bd 092e b13d 6f98 89bc 879e 9abd
00000330: 70db 833c f1bc 5b3b f4d6 45bc 30bd fdba
00000340: 60e6 c4bd dbd8 9b3d 7cc3 05bd 4aeb 473e
00000350: bb40 d8bd b6f7 f83d 5ece d7bb 7bdb 983d
00000360: 9993 663d 1b07 413d bce5 f6bd 759e f4bb
00000370: 523e 32ba 1292 163d 7494 9a3c 259b c53d
00000380: a769 363d 6fba bc3d d0cb 353c a61a 92bd
00000390: 0198 f43d 0c46 513d 3d13 b7bc 4d74 acbd
000003a0: 7b29 38bd d43e 18bd 02f9 1d3e ad53 ef3d
000003b0: 0792 a7bc 7db2 efbc 233c 0b3e b691 083b
000003c0: bfcc 303e 0577 0e3e 7d30 8abd f6ed b6bd
000003d0: 8787 3abd b6f3 94bd 1187 573d 2119 a63d
000003e0: 8cc1 2cbd 0364 f4bd 5c6a b2bd e411 bfbc
000003f0: 26fb 823d cc3f 273e 6feb 23bb 0ab9 123d

arith.constant3 f4 [6]
0.017502997 0.050437067 -0.12376202 -0.014989179 0.143843 -0.14101419
00000000: 7262 8f3c 1997 4e3d f176 fdbd 2c95 75bc
00000010: 944b 133e 0666 10be

arith.constant4 f4 [32]
-0.03699366 0.086587615 0.032150984 -0.06737786 -0.09638197 0.24422076 0.018597199 0.085617304
0.09369605 0.0063397065 -0.025158938 0.08368412 0.026254538 0.1287002 0.111640416 0.2446293
-0.06176333 -0.10596738 -0.018108489 0.06751505 0.060995005 -0.010108003 -0.051651772 0.009114056
-0.021448283 0.18836449 0.17098819 0.039178513 -0.003201176 0.14325306 -0.08263017 0.07463547
00000000: aa86 17bd d954 b13d c0b0 033d 67fd 89bd
00000010: e963 c5bd 0215 7a3e 2759 983c 2058 af3d
00000020: b7e3 bf3d 50bd cf3b 1e1a cebc 9462 ab3d
00000030: c213 d73c fcc9 033e bba3 e43d 1a80 7a3e
00000040: 8cfb 7cbd 6d05 d9bd 4158 94bc 5545 8a3d
00000050: e6d5 793d 0a9c 25bc cf90 53bd 1f53 153c
00000060: 4fb4 afbc 9fe2 403e 8717 2f3e a679 203d
00000070: d2ca 51bb eeb0 123e 023a a9bd 7bda 983d

sequential_1/dense_1_2/BiasAdd/ReadVariableOp f4 [64]
0.0656076 0.042098496 0.09065318 0.07351526 0.08875598 0.123890616 0.0836171 0.19915818
0.047220152 0.023224432 0.057526786 -0.039981604 0.14679089 0.0322508 -0.07730815 -0.107040375
0.15110828 -0.0134930415 0.12932171 -0.005295196 0.026950022 -0.023473272 0.02384725 0.015364976
0.22652566 -0.10637667 -0.10878688 0.21914724 -0.0014287337 0.030103467 0.04173622 0.03636872
0.07740455 0.13311239 0.0065495255 0.076925665 0.026782611 0.028860949 -0.035342857 0.013271158
-0.017652892 -0.14670713 0.21862715 0.15787172 0.030023493 -0.14449413 -0.020366153 0.034527358
0.09096575 0.047883086 0.003678014 0.18252401 0.032712847 0.10863229 0.12156806 0.04465496
-0.011300092 0.08236838 0.015512955 -0.097171865 0.004339087 0.1667543 0.0849029 -0.025240613
00000000: 475d 863d 796f 2c3d 60a8 b93d 2b8f 963d
00000010: b2c5 b53d 5dba fd3d 713f ab3d 1ff0 4b3e
00000020: eb69 413d 2a41 be3c 35a1 6b3d c0c3 23bd
00000030: 5a50 163e 6a19 043d bc53 9ebd fc37 dbbd
00000040: 21bc 1a3e eb11 5dbc e96c 043e 5383 adbb
00000050: 4bc6 dc3c 054b c0bc 4f5b c33c 61bd 7b3c
00000060: 58f6 673e 03dc d9bd a8cb debd 2268 603e
00000070: 5944 bbba 8c9b f63c 99f3 2a3d 5ef7 143d
00000080: 4786 9e3d 9d4e 083e 679d d63b 348b 9d3d
00000090: 3567 db3c cc6d ec3c acc3 10bd 456f 593c
000000a0: cc9c 90bc 653a 16be ccdf 5f3e 20a9 213e
000000b0: d4f3 f53c 45f6 13be ebd6 a6bc 8f6c 0d3d
000000c0: 404c ba3d 0e21 443d d60a 713b 93e7 3a3e
000000d0: e8fd 053d 9b7a de3d adf8 f83d 1fe8 363d
000000e0: 0524 39bc c1b0 a83d 0d2a 7e3c 0b02 c7bd
000000f0: e62e 8e3b a4c1 2a3e 92e1 ad3d 67c5 cebc

sequential_1/dense_1/BiasAdd/ReadVariableOp f4 [128]
-0.0018823127 0.10337196 -0.08011669 -0.0720998 -0.14825441 0.023727244 -0.19935594 0.13055155
0.003073411 -0.03159449 0.049488258 -0.19333732 0.06587005 -0.11528296 0.08163588 0.049507126
0.12505487 0.017287765 -0.03696795 0.07850537 -0.13396876 0.07091275 0.050761905 0.07820043
-0.1242238 0.065740965 -0.0343581 0.0043687234 0.10507665 0.171649 -0.026482273 0.054321103
0.0667187 0.020823915 0.03460673 -0.06027888 -0.015586427 0.099400885 0.096742 0.18661894
-0.021014785 0.12540002 -0.121768974 0.085032254 0.039250836 -0.026576178 0.008001416 0.08764853
-0.092606634 0.10678496 -0.008595428 0.07451945 -0.009586883 -0.04490352 -0.19120353 -0.029001981
0.0022425763 0.057624385 0.13084492 -0.016967619 -0.012544571 -0.015351502 0.03401543 0.118199036
-0.016722837 0.015178447 0.11789822 0.014580563 0.02404157 -0.12164767 0.042836618 -0.039417323
0.019603826 -0.0016470967 -0.041808143 0.08758631 -0.04640151 0.10200804 -0.09374801 0.13068978
-0.0869767 0.09942324 -0.022042988 -0.009809447 -0.04475082 0.08365392 0.083843514 0.15315981
0.037140597 0.12310394 0.03853314 0.09052908 -0.06266588 0.18468608 -0.006661346 -0.045232423
-0.048721433 0.015421848 -0.04149982 0.07048994 -0.008799199 -0.044501897 -0.04408083 -0.12285182
0.0074891504 0.15444385 0.06997486 -0.048076566 0.028736625 -0.14044178 0.008277089 -0.14544807
-0.003053737 -0.14042157 0.0054862266 -0.13114385 0.13057609 -0.1803199 -0.095419556 -0.08377317
0.06291797 -0.0012171614 0.11524223 0.10539293 0.110661134 0.09220164 -0.06043232 0.018548578
00000000: efb7 f6ba aeb4 d33d 3814 a4bd 0fa9 93bd
00000010: 01d0 17be a35f c23c f723 4cbe 4eaf 053e
00000020: 486b 493b 3969 01bd 33b4 4a3d 38fa 45be
00000030: e0e6 863d 7919 ecbd b630 a73d fcc7 4a3d
00000040: 620e 003e 129f 8d3c b56b 17bd 6cc7 a03d
00000050: 1b2f 09be b43a 913d b7eb 4f3d 8c27 a03d
00000060: 0c69 febd 33a3 863d 14bb 0cbd 8227 8f3b
00000070: 6d32 d73d c1c4 2f3e 5af1 d8bc ce7f 5e3d
00000080: d0a3 883d ea96 aa3c c9bf 0d3d fde6 76bd
00000090: 375e 7fbc b192 cb3d ab20 c63d 0919 3f3e
000000a0: 3327 acbc dd68 003e 0362 f9bd 6425 ae3d
000000b0: 7cc5 203d 49b6 d9bc 5f18 033c 1381 b33d
000000c0: 8ca8 bdbd 13b2 da3d d7d3 0cbc a79d 983d
000000d0: 4d12 1dbc c1ec 37bd dcca 43be 9095 edbc
000000e0: 30f8 123b 8c07 6c3d 36fc 053e adff 8abc
000000f0: bf87 4dbc de84 7bbc c353 0b3d 5612 f23d
00000100: 55fe 88bc 05af 783c 9f74 f13d 50e3 6e3c
00000110: d4f2 c43c 6a22 f9bd 7375 2f3d 0f74 21bd
00000120: 3498 a03c 65e3 d7ba 043f 2bbd 7460 b33d
00000130: 820f 3ebd 97e9 d03d f5fe bfbd 8bd3 053e
00000140: d720 b2bd 699e cb3d 7f93 b4bc ceb7 20bc
00000150: a34c 37bd bf52 ab3d 26b6 ab3d edd5 1c3e
00000160: bd20 183d eb1d fc3d edd4 1d3d 4f67 b93d
00000170: f856 80bd 591e 3d3e 6c47 dabb a245 39bd
00000180: 2090 47bd ebab 7c3c b7fb 29bd 085d 903d
00000190: 842a 10bc 9f47 36bd 1a8e 34bd bc99 fbbd
000001a0: 8c67 f53b 8726 1e3e fb4e 8f3d efeb 44bd
000001b0: 1269 eb3c f8cf 0fbe a19c 073c 57f0 14be
000001c0: 3521 48bb acca 0fbe cec5 b33b 934a 06be
000001d0: bdb5 053e c8a5 38be 546b c3bd 4591 abbd
000001e0: 23db 803d 2989 9fba 1e04 ec3d 40d8 d73d
000001f0: 4ea2 e23d 37d4 bc3d e187 77bd 30f3 973c

sequential_1/dense_1/MatMul f4 [128, 16]
0.028234772 0.046932198 -0.11948762 -0.35048354 0.2647977 0.059591815 -0.12004005 0.021746632
0.003069476 0.10908907 -0.034926165 -0.11468292 -0.01346969 -0.021271795 -0.078735635 0.05226571
-0.042684305 -0.03929386 0.06403954 0.15810177 -0.21538107 -0.039291725 0.06865965 0.07391886
0.06498883 -0.19526336 0.10391426 -0.026111983 -0.09147817 -0.07353672 -0.20401686 -0.026633924
0.075209394 0.078784734 -0.051581036 0.04130693 0.18548165 -0.09491166 -0.13913499 0.13064025
0.04550441 0.12827599 0.042861857 0.027630582 -0.03385757 -0.09529477 0.11137162 0.16066901
0.16368715 0.06118918 -0.13442084 0.10067733 0.074355245 0.2015759 0.07276961 -0.10158099
-0.23974974 -0.17061983 -0.105930544 0.097114205 0.11773738 -0.14386249 -0.21540388 -0.09704848
-0.061511517 0.074917674 0.05793746 0.1318829 -0.08268504 -0.13162921 -0.15801413 -0.14087611
-0.17183064 -0.13639766 -0.011693383 0.0057521774 0.025179086 0.007979425 0.22991207 0.031134909
-0.03326418 0.07749937 -0.049418516 -0.42477512 0.21618289 -0.11540958 0.12959199 0.11896135
-0.1374339 0.102985 -0.08004045 0.082585454 0.05228007 0.1155206 0.122894175 -0.2356525
0.029027427 0.13369966 -0.102797836 -0.011962347 0.10311993 0.021221172 -0.114958934 -0.09539287
-0.15994585 0.13562542 0.12443452 -0.029790476 0.109359935 0.015502345 0.22012763 0.16461712
-0.07324741 0.007262122 0.06332173 0.027623523 -0.23747073 -0.017231712 0.012793232 0.037664104
-0.24819249 -0.004497163 -0.09998783 0.058949277 -0.07103219 0.17442738 -0.061651543 0.00868092
0.0824982 0.052679762 0.028695246 0.24747221 -0.111245066 -0.20685326 0.09096873 -0.18115875
-0.14277187 0.074203 0.15292965 -0.005784267 -0.049682464 -0.0066427845 0.15623291 0.14438881
-0.05713563 -0.062240046 0.11594009 -0.100233674 -0.00022485237 -0.0059724785 0.107662775 -0.20299771
0.02435789 -0.17204724 0.13323452 -0.08371799 -0.11968821 -0.0425586 -0.15271175 -0.043091346
0.18018207 -0.08037646 -0.100538224 -0.43186072 0.20365755 -0.0021866711 -0.05709995 -0.09898998
0.05277304 -0.10707094 0.10823206 0.025287824 0.04914569 0.06081172 0.18633616 -0.21297541
-0.06862496 0.0969414 -0.03793014 0.21918471 0.16802107 0.002946653 -0.09781207 -0.13469814
-0.013922927 0.08003875 0.037264444 -0.08464431 0.003801438 0.07962652 0.3800151 0.0021850683
-0.18411088 -0.13811032 -0.03746811 -0.06471701 -0.099149965 -0.018847115 0.03881621 -0.03193004
-0.17894894 -0.05729103 -0.04662329 0.0040043923 0.0985731 -0.04844579 -0.08044883 -0.024286471
0.09239678 -0.1931694 0.14412434 -0.12764452 0.23470771 0.078873344 0.13587794 -0.06582473
-0.05844251 -0.02046855 0.023205452 -0.05196488 -0.093410134 -0.16846389 0.27789336 -0.03591855
-0.17374454 -0.09700558 -0.23156814 0.42445996 -0.33087873 -0.049201574 0.13973755 0.014549649
-0.095777705 0.09520552 0.10513782 0.00683348 -0.0143299205 -0.012555243 -0.07606694 0.06979204
-0.13170774 0.15204422 0.017696984 0.08784351 0.22389095 0.06232801 -0.058528017 0.069864005
0.15576015 0.27767083 -0.2126692 0.10060891 0.13171358 -0.09356773 0.2548202 -0.17512432
00000000: 9c4c e73c fa3b 403d edb5 f4bd 9472 b3be
00000010: 9093 873e 8c16 743d 8fd7 f5bd fe25 b23c
00000020: 4329 493b 176a df3d bd0e 0fbd e1de eabd
00000030: faaf 5cbc 3042 aebc 2640 a1bd 9214 563d
00000040: bdd5 2ebd 99f2 20bd 2a27 833d 6ee5 213e
00000050: db8c 5cbe 5cf0 20bd 6e9d 8c3d c562 973d
00000060: dd18 853d 1ef3 47be 00d1 d43d cce8 d5bc
00000070: e858 bbbd 6b9a 96bd cce9 50be 632f dabc
00000080: 6207 9a3d e459 a13d a346 53bd 7531 293d
00000090: e7ee 3d3e 0b61 c2bd 6779 0ebe 8fc6 053e
000000a0: d562 3a3d c85a 033e ea8f 2f3d 8859 e23c
000000b0: 3cae 0abd e829 c3bd ce16 e43d 6b86 243e
000000c0: 9b9d 273e 81a1 7a3d 9ea5 09be ea2f ce3d
000000d0: 9047 983d ea69 4e3e 3c08 953d b209 d0bd
000000e0: f580 75be f7b6 2ebe 1df2 d8bd d0e3 c63d
000000f0: 4c20 f13d b050 13be d692 5cbe 5ac1 c6bd
00000100: 80f3 7bbd 706e 993d d44f 6d3d 500c 073e
00000110: c656 a9bd cfc9 06be 75ce 21be d441 10be
00000120: 5ff4 2fbe d4ab 0bbe 9a95 3fbc c37c bc3b
00000130: 5f44 ce3c 22bc 023c 126e 6b3e a30e ff3c
00000140: 0540 08bd fdb7 9e3d 126b 4abd 207c d9be
00000150: 0c5f 5d3e dc5b ecbd c3b3 043e 02a2 f33d
00000160: 79bb 0cbe cde9 d23d 3fec a3bd 9022 a93d
00000170: a023 563d 1096 ec3d f1af fb3d e44e 71be
00000180: edca ed3c 90e8 083e ac87 d2bd b8fd 43bc
00000190: 8b30 d33d 06d8 ad3c 976f ebbd 565d c3bd
000001a0: d8c8 23be 64e1 0a3e 87d7 fe3d 280b f4bc
000001b0: 1af8 df3d 8cfd 7d3c 2369 613e 6491 283e
000001c0: bd02 96bd 18f7 ed3b d3ae 813d ba4a e23c
000001d0: 872b 73be 8529 8dbc b49a 513c ad45 1a3d
000001e0: 2c26 7ebe f05c 93bb 6bc6 ccbd cc74 713d
000001f0: 5379 91bd 179d 323e 5486 7cbd 6b3a 0e3c
00000200: d1f4 a83d bcc6 573d 4b12 eb3c 5b69 7d3e
00000210: 74d4 e3bd 57d1 53be d04d ba3d ae81 39be
00000220: ca32 12be bef7 973d 9799 1c3e f389 bdbb
00000230: d77f 4bbd b7ab d9bb 85fb 1f3e a9da 133e
00000240: 0d07 6abd 6bef 7ebd ff71 ed3d 5047 cdbd
00000250: 59c6 6bb9 c8b4 c3bb 4d7e dc3d a2de 4fbe
00000260: 338a c73c 272d 30be a16e 083e 5674 abbd
00000270: 181f f5bd ed51 2ebd 7860 1cbe 8d80 30bd
00000280: a681 383e 6a9c a4bd fce6 cdbd d91c ddbe
00000290: 9b8b 503e 414e 0fbb a3e1 69bd 42bb cabd
000002a0: 8b28 583d 0248 dbbd c5a8 dd3d 6928 cf3c
000002b0: fe4c 493d b615 793d e8ce 3e3e 3a16 5abe
000002c0: 3e8b 8cbd 3689 c63d a25c 1bbd f571 603e
000002d0: b70d 2c3e a21c 413b b251 c8bd 4fee 09be
000002e0: fd1c 64bc 5beb a33d 9aa2 183d ff59 adbd
000002f0: 8c21 793b 3b13 a33d 5791 c23e 5d33 0f3b
00000300: 9087 3cbe cb6c 0dbe 2978 19bd 5a8a 84bd
00000310: 230f cbbd 4465 9abc bffd 1e3d 13c9 02bd
00000320: 643e 37be 00aa 6abd 10f8 3ebd 4737 833b
00000330: b2e0 c93d 186f 46bd 5bc2 a4bd 6cf4 c6bc
00000340: 863a bd3d 33ce 45be 5595 133e 3fb5 02be
00000350: 3857 703e 5988 a13d 9623 0b3e 1ecf 86bd
00000360: 6a61 6fbd a9ad a7bc 5c19 be3c 20d9 54bd
00000370: d04d bfbd cc81 2cbe 0a48 8e3e 541f 13bd
00000380: 17ea 31be ddaa c6bd 3320 6dbe d152 d93e
00000390: f068 a9be 9787 49bd 5c17 0f3e a761 6e3c
000003a0: 1a27 c4bd 1dfb c23d 7f52 d73d 63eb df3b
000003b0: 0bc8 6abc 82b4 4dbc fcc8 9bbd 21ef 8e3d
000003c0: 65de 06be 7bb1 1b3e 44f9 903c 4ce7 b33d
000003d0: ab43 653e a84b 7f3d 13bb 6fbd dc14 8f3d
000003e0: 977f 1f3e df2a 8e3e f4c5 59be 0b0c ce3d
000003f0: eddf 063e 70a0 bfbd cb77 823e ca53 33be
